Double_Passage_Stone/best_model.pth (torch, 5734 bytes, 6 tensors)

fc1.weight f4 [16, 7]
00000000: 36c6 bb3e aea2 783d a64b 8dbe 78c8 adbe
00000010: be2d 273e 3a53 77be daf2 14be 5d08 623e
00000020: 85e8 5cbe a0b6 a83e 2842 5fbe 1d45 7f3d
00000030: ae94 aa3e 2a11 6abc 6237 683e 6c27 b2bd
00000040: a95f e53e 1faa ca3e 0f12 193f 0290 a13e
00000050: 9eff a83e 0284 c7bd d08f a7be b753 d1be
00000060: b01d 953e a470 d63e 7396 603e 4df4 b73e
00000070: 74b3 733e 81e5 91bc 2a36 b83e 8fed 29be
00000080: fd2f aabe 9c2f 8e3e 9b71 6ebe bb8c 88be
00000090: a992 8c3d 1eec 9c3e 5ade 743e d0b0 21be
000000a0: 652f 043e d0a0 60be 7759 40be 8a64 3ebe
000000b0: 4872 ecbe b2df e63e 1c4d 473f 0554 19be
000000c0: 9b3e a13e 1298 a43e 9a6b cb3e 55c1 ce3f
000000d0: 05ac 08be 3f28 abbf a5be d1be 00c3 973d
000000e0: 29ac ab3e 23ca a7be 6491 15bd 8ee8 4bbf
000000f0: e984 67bf 6799 90be 61b2 353e 8a92 efbe
00000100: 2bc0 43bd 4755 883e d64d 7fbf 425b d2bf
00000110: 1b2b 803e 1810 0d3e ec46 70bc 6984 12be
00000120: 2f4d 31bd 5d3d 76bf 0b7f a5bf e67b a03e
00000130: 2996 883d 95e4 8cbd 0609 243e 5b1c 90bd
00000140: 89a5 a2be 8aa9 4f3e d870 25be 068f babc
00000150: 813f 8e3e f523 a73e 05f8 263f a8f0 3dbf
00000160: 2a49 90bf 15ae a3be ce74 633e 7f80 2c3f
00000170: 8787 603f 8423 8e3f bfe4 973e db74 76bc
00000180: 5812 843e 586e a93e 2b8d c63d 370f 4f3d
00000190: 3830 0e3f aff9 f03e cfc5 cb3e 6f4b a8be
000001a0: 3de9 973e 24af dc3d fd28 883e 2075 acbf
000001b0: fa61 923d a024 de3f 880c bcbe c131 143d
0.3667466 0.06070202 -0.27596778 -0.33942008 0.16326043 -0.24152842 -0.14545766 0.22073503
-0.21573074 0.32951832 -0.2180258 0.06232177 0.3331656 -0.014286319 0.22677377 -0.086989254
0.44799545 0.39582917 0.5979318 0.31555182 0.3300752 -0.09741975 -0.32726908 -0.40884182
0.29124212 0.41882813 0.21932392 0.35928574 0.23798925 -0.017809631 0.35978824 -0.16594528
-0.33239737 0.27770698 -0.23285525 -0.2666987 0.06863911 0.30648893 0.23912945 -0.15790105
0.12908705 -0.21936345 -0.18784128 -0.1859304 -0.4618094 0.4509254 0.77852035 -0.14973457
0.31493077 0.3214727 0.3973053 1.615275 -0.1334687 -1.3371657 -0.40965763 0.0741024
0.33529785 -0.32771406 -0.03651561 -0.79651725 -0.9043718 -0.28242037 0.17743827 -0.46791488
-0.047790688 0.2662756 -0.99728143 -1.64341 0.25032887 0.1377567 -0.014665347 -0.14308323
-0.0432865 -0.9618738 -1.2929395 0.31344527 0.06669266 -0.06879536 0.16019067 -0.070366584
-0.31766918 0.20279518 -0.16156328 -0.022773277 0.27782825 0.3264462 0.652222 -0.7419534
-1.1272328 -0.31968752 0.22212526 0.6738357 0.877068 1.1104589 0.29666707 -0.015042509
0.25795245 0.33091998 0.096948944 0.05055162 0.55542326 0.47065493 0.39799353 -0.3287005
0.29670134 0.10775593 0.26593772 -1.3473244 0.07147594 1.7354927 -0.3672831 0.03618026

fc1.bias f4 [16]
00000000: a191 05be 6adf 9f3e f443 8f3e ccf5 9a3e
00000010: fd0b b3bd 4f84 93be 7840 bebe d93b 873e
00000020: 34d2 9c3e a028 583e a05f b73e 24ce 8ebd
00000030: b4c2 babd c2ef 44be 9fc0 96bc 8210 b3bd
-0.13043834 0.3122514 0.27981532 0.30265653 -0.08742521 -0.2881188 -0.3715856 0.26412848
0.30629122 0.21109247 0.35815144 -0.06972912 -0.09119168 -0.19232085 -0.018402396 -0.08743383

fc2.weight f4 [32, 16]
00000000: 387b 6ebe 38bf 373e 7d1e dd3d 7531 3cbe
00000010: 50f2 cfbd 0aed 66be 4ef5 7fbc 5808 f23d
00000020: 52de 663e 718e 873e b219 ee3c c874 203d
00000030: f3e4 873e 411b 4b3e 08a4 cebd 057d 3ebe
00000040: 5ad1 02be 10ee 933c 3de5 bcbd 0487 11be
00000050: b6fb 11be 4024 aabd 6824 fbbd 8e36 d23c
00000060: e1f6 083e 2000 16be 4041 ea3d 8819 7f3d
00000070: 7ddc 873e 732e 0d3e cdbb 4b3e 3eab 99be
00000080: 0c31 2d3e 5a1d 7a3e b739 163e 5da9 55be
00000090: 84d6 403e eade 223e b6d2 3b3e 599c 763e
000000a0: bae5 80be 9e34 653e 2a0c 55be 3e92 773e
000000b0: 83d0 d63c 1d2c 31bd 50bb 033e 82cd fcbd
000000c0: 7890 633e 0481 6cbe 7e64 73be 310a 7d3e
000000d0: 909b cbbc 34c6 043e 887b 193e a4fc 133e
000000e0: 0ea1 803e 2b20 4f3d 1766 7a3e 4a50 083e
000000f0: c191 c4bd 3662 c9bd f7d3 313d 2504 2f3e
00000100: 00d4 b5ba 84ef 1d3e e216 5ebe 4088 4c3d
00000110: beb4 3fbe c81b 643e 48db 32bd 481a 813d
00000120: 9671 4ebe 2ef3 2d3e 54ac 243e 383d f33d
00000130: 16f9 67be 9084 7dbe 90e2 aa3d 4aee 573e
00000140: cea4 3bbe e0ce 9fbc f7d6 f53d 4a29 40bc
00000150: 3c2d 953d 8c1a 26be f79b 2f3e 4e8e 4dbe
00000160: 9a9b cabd 8b28 0ebe 06cb 41bb 364f 48be
00000170: 92e4 1dbe 8ad0 2b3e 0517 de3d fc70 833e
00000180: b060 ce3d 789d 2dbe a807 85bd 52f1 6a3e
00000190: 30ff 713d b001 b2bd 6c39 a43d 407c bf3d
000001a0: a096 023e 5842 cd3d 8c1a e9bd 725a 243e
000001b0: 20c0 bebd d697 6abe 70b9 27be 049b 2f3e
000001c0: aa77 39be 8062 113b 487e 7d3d 28fc 7c3e
000001d0: c8ea 133e 6641 4dbe ecae 53be 44bd 8ebd
000001e0: 52ea 5cbe 3c22 023e b439 59be 5826 20bd
000001f0: ba4e 46be 3460 4cbe c0e6 563c c80e 43bd
00000200: 6c89 a0bd 364c 3ebe 1485 e2bd 0022 463a
00000210: 2ce9 c73d 0094 acbc b02f 3a3d b482 a7bd
00000220: 5c9d df3d d809 543e 409b 143c 680d 7d3d
00000230: 4ab9 43be 3886 95bd e43e 08be 0664 51be
00000240: 8cf2 463e d0d6 033d 1378 08be c44e 5a3e
00000250: 4002 2cbc d415 e0bd be5e 07bc ccec 263e
00000260: 6368 47bd ab92 a8bd fd3e 253d 8a03 4d3e
00000270: 45c5 0ebd 4b78 183e ffe4 3e3e 8fd9 0c3e
00000280: 7a0a 26be 0c5a b73d 0010 403c 4cc6 183e
00000290: eab2 58be e204 2b3e aaa0 56be 76ed 763e
000002a0: 3096 05be d6ea 15be 2049 aabd e021 ebbc
000002b0: d4d7 93bd b0f2 a2bd d455 fe3d 50b0 20bd
000002c0: 80ef 4dbb cee0 513e b960 643d 3bca 193e
000002d0: 343f 693e 407d 59bd 396e 163c eebc 1d3e
000002e0: 84d6 a5bd a403 69be cbcf f8bd a026 353c
000002f0: 19b0 fcbc 2f8c 653e fa4c f73b ea3f 81be
00000300: 9cf2 973d 00d9 9c3c 60fd 1ebd 7053 fe3d
00000310: 064a 193e 8042 9d3d 8897 5cbd 64e4 fcbd
00000320: 308c e43c f085 26bd 0c7e 193e 381e 6bbd
00000330: 7e52 13be 002b 89bd d6ee 6fbe 00b6 9c3c
00000340: e0d9 57be 1c9f e2bd 0084 97bd 8693 783e
00000350: 384e d8bd 9090 70bd 4890 61be ba90 3b3e
00000360: 14eb de3d 0084 b1bc 68a7 793d 403e 60bd
00000370: f44d 39be ce5d 02be 66ef 54be f48e 98bd
00000380: f85b abbd f671 6dbe 90ab 33be 7424 15be
00000390: 5cab a23d acb3 9e3d 7478 4abe a0c8 61be
000003a0: e286 13be 70be cabc a0d1 f5bd f47d d23d
000003b0: 4cc2 62be 703c 61be 20f1 70be ce50 643e
000003c0: 70f1 fbbc 68fe a03d 447a 64be 9493 81bd
000003d0: a88a bebd 087b 6d3e a003 b7bd a016 293d
000003e0: d45d d73d 885d 24bd f615 13be 4008 b53d
000003f0: 68f6 333d 6464 81bd d216 26be 4813 bc3d
-0.23289192 0.17944038 0.10796831 -0.18378241 -0.10153639 -0.2255136 -0.01562245 0.11817998
0.22545746 0.26475862 0.029064987 0.03917387 0.26541862 0.19834615 -0.1008988 -0.18602379
-0.12775174 0.018057853 -0.09223411 -0.1421166 -0.14256176 -0.083076954 -0.12262803 0.02566078
0.13375427 -0.14648485 0.11438227 0.062280208 0.26535407 0.1378725 0.19895859 -0.3001346
0.16913241 0.24425259 0.14670454 -0.20865388 0.18831831 0.15905347 0.18342099 0.2408308
-0.25175267 0.22383353 -0.20805421 0.2417688 0.026222473 -0.04325496 0.12864423 -0.12343885
0.22223079 -0.2309609 -0.23768803 0.24710919 -0.024854451 0.12966233 0.1498853 0.14451844
0.25122875 0.050567787 0.24453007 0.13311878 -0.09598113 -0.098331854 0.043415036 0.17091425
-0.0013872385 0.15423399 -0.21688417 0.049934626 -0.18721291 0.22276223 -0.043666154 0.06303841
-0.20160517 0.16987297 0.16081363 0.11876911 -0.22653612 -0.247576 0.083439946 0.21086994
-0.18324587 -0.019507825 0.12003892 -0.011728594 0.072840184 -0.16221064 0.1714934 -0.20073816
-0.0989296 -0.13882653 -0.0029570474 -0.19561467 -0.15419224 0.1677877 0.108442344 0.25672138
0.100770354 -0.16954601 -0.06495601 0.22943619 0.059081256 -0.08691728 0.08018765 0.09349871
0.12752771 0.1002242 -0.113820165 0.16050127 -0.09313989 -0.22909483 -0.16379333 0.17148978
-0.18112054 0.0022183955 0.06188801 0.24705565 0.1444503 -0.20044479 -0.20672196 -0.06969693
-0.21573761 0.12708372 -0.21213418 -0.039099067 -0.1936597 -0.19958574 0.0131165385 -0.04762152
-0.07838711 -0.1858376 -0.11060539 0.0007558167 0.09761271 -0.021066666 0.045455635 -0.081792265
0.10918686 0.2070688 0.009070218 0.061780363 -0.19113651 -0.07300991 -0.13305241 -0.20448312
0.19428462 0.032187283 -0.13327055 0.21319109 -0.010498583 -0.109416634 -0.008262334 0.16301268
-0.048683535 -0.082311 0.040343273 0.20020881 -0.0348561 0.14889638 0.18642043 0.13754867
-0.16214934 0.08952722 0.011722565 0.14919394 -0.21162 0.16701081 -0.20959726 0.24114022
-0.13045573 -0.14640364 -0.08314729 -0.028702676 -0.072189 -0.07956445 0.12418714 -0.039230645
-0.003142327 0.20495912 0.055756304 0.15018551 0.22778016 -0.053097963 0.009181553 0.15404102
-0.08097556 -0.22755295 -0.12149008 0.011056572 -0.030845689 0.22416757 0.007547018 -0.25244075
0.07419321 0.019146442 -0.038815856 0.12418258 0.14969644 0.076786995 -0.05385545 -0.123482496
0.027898878 -0.040655077 0.1498949 -0.057401866 -0.14386937 -0.06697655 -0.23430952 0.019129753
-0.21079206 -0.11065504 -0.07398224 0.24275026 -0.10561794 -0.058731616 -0.22027695 0.18316928
0.10884681 -0.021669388 0.060950667 -0.054746866 -0.18096143 -0.12731096 -0.20794448 -0.07449141
-0.08367151 -0.23188004 -0.17545915 -0.14564687 0.079428405 0.077491134 -0.19772512 -0.22049189
-0.14406922 -0.02474901 -0.120028734 0.1027793 -0.22144431 -0.21995711 -0.23529482 0.2229645
-0.030754775 0.07861024 -0.22312266 -0.063269764 -0.0930379 0.23191464 -0.08936238 0.041281343
0.10515943 -0.04012826 -0.14363846 0.08839464 0.043936163 -0.06317976 -0.16219643 0.09183365

fc2.bias f4 [32]
00000000: d767 80bc d668 ed3d 1c9c 85be d08d 123e
00000010: 7cdb a8bd 1cfa df3c 8408 353e c06f 043c
00000020: f493 d33d d3b2 643e b2e4 2abe 6edb 41be
00000030: 88f2 aa3d 9e2f 45be 7e33 713e 8a43 0dbe
00000040: 7cd3 25be 6fc7 f1bd a199 80be 9ca4 60be
00000050: cf2c 8cbd d2f3 25be e87f 4cbd 796c 6abe
00000060: 2c0a ff3d 39b3 523e a62d 303d 5d29 433e
00000070: 545b 773e d0b9 1bbe bb76 5dbe ac57 533e
-0.015674515 0.115922615 -0.26095665 0.1431191 -0.08244988 0.027340941 0.1767903 0.008083284
0.10330954 0.22333841 -0.16688803 -0.18931362 0.083470404 -0.19256446 0.23554799 -0.13795295
-0.16193956 -0.11805617 -0.2511721 -0.21937793 -0.06844484 -0.16206291 -0.04992667 -0.22892942
0.12453112 0.2057618 0.043012284 0.19058748 0.24155933 -0.152076 -0.21627323 0.20638913

fc3.weight f4 [3, 32]
00000000: 7a63 e3bd 1dfe 9dbd e69a 1b3e b013 aabd
00000010: b8e5 8b3b a06d 853d 058e a43d e481 8cbd
00000020: 452d 713d 4126 d53d b90f 333e 62e8 a83c
00000030: 0adc 83bb 024a c3bd a1c4 19be 9e05 9d3d
00000040: 208b edbd 442f 903c ec6e f5bd 1927 1a3d
00000050: 73c5 203e 0b41 bdbd c61c 9f3d 0002 d2bd
00000060: dfe4 333d 136f 073e 9094 e93d 0900 d53d
00000070: 1069 d8bc 81b5 23be 9dcb 583d fc6f 163e
00000080: f573 16be a9d0 87be dc65 25bd aaf0 08be
00000090: c960 313d 6916 2a3e 28fe cf3d 1762 63bc
000000a0: 1a6d 293e 1d2e 263e 1d1a f9bc c607 e4bc
000000b0: a066 b2bd a934 e73d 62b9 0d3c ac95 293e
000000c0: 68fc 053e 782a f7bd 2da4 cd3c 8710 303e
000000d0: f7f0 babd 8dfd b33c 0797 8c3c 539f 1f3e
000000e0: d447 febd 4b77 c03d b441 57bb c38c 62bd
000000f0: a174 0abe a37b 9fba b0db 99bd 0e9b bb3d
00000100: 6573 84bd f1a3 07bd 8b8a a73d b0d6 4cbe
00000110: aa3f eb3c 20f9 c9bd e8e5 283e ec4b 1cbd
00000120: c570 2d3e ef01 933d 539c d9bd fa3e 353e
00000130: fd2a 443d 412e cdbd a66d 15be 420b 223d
00000140: 4157 0f3e 8674 613d 22a9 183e c9f0 aebc
00000150: 1f10 c93d 0048 ff3d 2b55 7739 5473 e7bc
00000160: c684 7a3d cd6a dbbd d8bc 0d3e d9a4 5b3d
00000170: f148 af3d a01e b5bd a4d3 05bb 3fa6 76bc
-0.11102958 -0.07714484 0.15195808 -0.08304536 0.004269328 0.0651505 0.080349006 -0.06860712
0.058881063 0.10407687 0.17486466 0.020618621 -0.0040240334 -0.095356 -0.15016414 0.07667087
-0.115988016 0.017600663 -0.11984047 0.037634943 0.15700321 -0.092409216 0.0776916 -0.10254288
0.04391944 0.13225965 0.11405289 0.10400397 -0.026417285 -0.15987207 0.052928556 0.14691156
-0.14692672 -0.26526383 -0.040380344 -0.13373056 0.043305192 0.16610111 0.10155898 -0.013878367
0.16545525 0.16228528 -0.03040796 -0.027835738 -0.087109804 0.11289341 0.008650156 0.16561002
0.13084567 -0.12068647 0.0251027 0.17193805 -0.09127992 0.021971488 0.01716186 0.15588121
-0.12416044 0.09397753 -0.0032845559 -0.055310022 -0.13521053 -0.0012167584 -0.07512605 0.09160434
-0.06467322 -0.03311533 0.08180722 -0.20003772 0.02871688 -0.0986197 0.16493952 -0.038158342
0.1693755 0.07178103 -0.106255196 0.17699805 0.04789256 -0.10018588 -0.14592609 0.039561518
0.13998128 0.055042766 0.14908269 -0.02135505 0.09817528 0.12464905 0.00023587483 -0.028253235
0.06116178 -0.1071373 0.1384157 0.053624008 0.08558834 -0.08843732 -0.0020420337 -0.015054285

fc3.bias f4 [3]
00000000: 441b 39be 24b9 053d 002c 1f3d
-0.18076807 0.032647267 0.03886032
